…
_____________________ TestResNetModel.test_initialization ______________________
python/tests/test_neural_networks/test_resnet_model.py:268: in test_initialization
    assert gomoku_model.metadata.input_channels == 20
E   AssertionError: assert 18 == 20
E    +  where 18 = ModelMetadata(game_type='gomoku', board_size=15, num_actions=225, input_channels=18, num_blocks=3, num_filters=64, version='1.0', training_steps=0, elo_rating=1200.0).input_channels
E    +    where ModelMetadata(game_type='gomoku', board_size=15, num_actions=225, input_channels=18, num_blocks=3, num_filters=64, version='1.0', training_steps=0, elo_rating=1200.0) = ResNetModel(\n  (conv_input): Conv2d(18, 64, kernel_size=(3, 3), stride=(1, 1), padding=(1, 1), bias=False)\n  (bn_input): BatchNorm2d(64, eps=1e-05, momentum=0.1, affine=True, track_running_stats=True)\n  (residual_blocks): ModuleList(\n    (0-2): 3 x ResidualBlock(\n      (conv1): Conv2d(64, 64, kernel_size=(3, 3), stride=(1, 1), padding=(1, 1), bias=False)\n      (bn1): BatchNorm2d(64, eps=1e-05, momentum=0.1, affine=True, track_running_stats=True)\n      (conv2): Conv2d(64, 64, kernel_size=(3, 3), stride=(1, 1), padding=(1, 1), bias=False)\n      (bn2): BatchNorm2d(64, eps=1e-05, momentum=0.1, affine=True, track_running_stats=True)\n    )\n  )\n  (policy_head): PolicyHead(\n    (conv): Conv2d(64, 2, kernel_size=(1, 1), stride=(1, 1), bias=False)\n    (bn): BatchNorm2d(2, eps=1e-05, momentum=0.1, affine=True, track_running_stats=True)\n    (fc1): Linear(in_features=450, out_features=128, bias=True)\n    (fc2): Linear(in_features=128, out_features=225, bias=True)\n  )\n  (value_head): ValueHead(\n    (conv): Conv2d(64, 1, kernel_size=(1, 1), stride=(1, 1), bias=False)\n    (bn): BatchNorm2d(1, eps=1e-05, momentum=0.1, affine=True, track_running_stats=True)\n    (fc1): Linear(in_features=225, out_features=128, bias=True)\n    (fc2): Linear(in_features=128, out_features=1, bias=True)\n  )\n).metadata
______________________ TestResNetModel.test_forward_pass _______________________
python/tests/test_neural_networks/test_resnet_model.py:288: in test_forward_pass
    policy, value = gomoku_model(sample_input)
../venv/lib/python3.10/site-packages/torch/nn/modules/module.py:1751: in _wrapped_call_impl
    return self._call_impl(*args, **kwargs)
…
